hr-service/simple_doc_classifier.pth (torch, 11285 bytes, 2 tensors)

fc.weight f4 [3, 768]
00000000: be8b 5b3c 6db4 a3bb 05f0 c63c 3630 86bc
00000010: 7a2f 903c cd45 bcbc 9c24 10bd 50cb d53b
00000020: a973 4bbc 9772 83bc ff4e bc3c 94d5 bd3c
00000030: 7b2d 69bc 3fab 0cbd 9952 8b3a 6e67 d63c
00000040: 9e20 f33c 5266 35bb 7883 3cbc f78e e6bb
00000050: 96af 7a3c d0b1 edbc e69d 023d f4df d43c
00000060: 6cd1 0b3d d720 be3c 49f7 943b 0826 b9bc
00000070: 2762 d7bb 0500 5ebc fba1 863c 1f66 abbc
00000080: 0f05 ae3c 78b9 6b3c bbb1 163c 71c1 37bb
00000090: d893 3d3c 1ff4 f73b 64c4 973c 9ee0 af3c
000000a0: ed18 d9bc d0c2 3abc 45b4 823c 8798 2cbd
000000b0: 9244 b93c 3558 0fbd 9223 4abc db75 88bb
000000c0: 5a40 c1bb e81b 47bc cbaf d23c de98 9b3c
000000d0: 2dc6 013d 0bfb 0f3d 4aba 11bd e7a3 06bd
000000e0: d937 1f3d d79a f83c 0830 eb3c 7332 49bc
000000f0: 9bac b6bc a0d1 c3bc 9a25 663c 026a ecbc
00000100: 19d7 f1bc c443 bb3c 1471 5abc 3e04 063c
00000110: e3e2 423b 74fd 0d3d aac3 e4bc 6224 b9bc
00000120: c9f2 2cbd 5f72 94bc 3689 53bc 72a6 b13c
00000130: 5a58 10bc 9c6e c33b d14e 85bb 08ba 96bc
00000140: 3b40 5e3b d481 6abc 394e 213c 3237 a63c
00000150: 7990 563c 2445 e03c 0fda e23c cfe6 bebc
00000160: 506a 383c 693e 083c 7bb7 debb 5e11 1dbb
00000170: 7894 05bd 9420 1c3c 3373 f73a 833a bdbc
00000180: 8f16 c6bb 88f5 733c 8133 713c 6207 893c
00000190: 730f 40bc 03fd 68bc 72c6 fe3b 4b1d d63c
000001a0: 4354 30bd aaf6 22bc 5868 21bc f3b9 bf3c
000001b0: 48d8 0e3d 9096 003d 66b6 8bbc 6349 463c
000001c0: bc5e 32bb b583 b2bc 5c87 d3bb c250 b83c
000001d0: 2de3 e03c c9a5 c23c 9f5f 67bc c1fd b43c
000001e0: c20b 873c 482c b6bc ecd8 d2bb c91a 07bb
000001f0: 8953 d5bc 4ed8 bebc 4008 463c 7c28 f4bc
00000200: 7867 51bc ca75 083c bc3c b43b 9d55 d3bc
00000210: ed02 8a3b c586 26bd 5f3b 343c b2a2 3d3c
00000220: 3c40 133d d097 873c 7d83 b5bc 35db 243a
00000230: de08 8cbb 86fd babc 4180 b73c 1f43 38bb
00000240: 946e e13c 3e1c 1bbc 84b4 c83c b67a 303d
00000250: e60f bf3c 21c7 32b9 b3dd 0bbd b68a 20bc
00000260: b268 e93c 06e3 b23c cdea 9bbc bddc 443c
00000270: 8c83 8cbc b693 40bc be2b ad3c 26cc c43c
00000280: dce6 0f3a 53a8 c4ba 34b7 4339 5764 ecbb
00000290: 5990 0bbd 7ca2 a8bc fef3 d3bc 9349 9a3c
000002a0: 7a14 b43c 7887 0e3d a14f 3b3c f24f 34bc
000002b0: 306e bc3b 8334 99bb c1e8 c93c 887a 1e3c
000002c0: 0cfe d93c 0975 cfbc 3255 9cbc 9d59 5cbc
000002d0: ad4b c33a a822 01bd a1c0 803c dfbb 0ebc
000002e0: be3f a1bc 1086 d0bc 1085 e2bb 1cfa db38
000002f0: e1f6 ed3c 2dd1 d23c 8a36 6ebc 1ddb ba3c
00000300: 6f57 6cba a688 8c3c d42d 8c39 4141 d43b
00000310: 355b 2e3c c6b8 b5bc fb03 bfbc ddb1 c73c
00000320: fa46 85bb 5687 6e3c 5167 c13c 7c98 0f3d
00000330: 4674 88bc d016 ba3b c7d7 8ebc c724 03bd
00000340: 7702 8c3b a614 d43b 636f 14bd 05b0 adbc
00000350: db9e 0e3d af25 45bb 07d2 f7bc d419 d9ba
00000360: 412c 9c3b f515 ee3c 1e19 96bb 5758 66bb
00000370: 41df e4bc e13b 85bc a546 fe3b 4135 403c
00000380: f703 b2bc 9de0 b2bc fcc4 353a f5cd d23c
00000390: 768a 6abc 7837 a4bc 511d b73c 22f4 1d3c
000003a0: 0f19 483a 8461 cfbc 7a00 5ebc a841 fdbc
000003b0: 1f9b 53bc 4b6c 1abd cf9b b0bc f932 07bb
000003c0: e732 963c 6cb8 8ebc 5f7e 91bc 8b10 87bc
000003d0: b7e7 973c 7182 883c ac10 bfbc 48df c7bc
000003e0: 96fc e7ba 2bd1 f1bc c4ae 0bbd e331 2ebd
000003f0: 00a4 9ebc 11bd 08bd b73a fe3c 3018 283d
0.013400016 -0.0049958737 0.024284372 -0.01638041 0.017600764 -0.022982502 -0.035191163 0.006524481
-0.012417712 -0.016045852 0.022986887 0.023173131 -0.014232035 -0.034343 0.0010629474 0.026172366
0.029678639 -0.0027679396 -0.011505954 -0.0070360857 0.015300652 -0.029015452 0.031888865 0.025985695
0.034135267 0.023209019 0.0045460803 -0.022601143 -0.00657298 -0.013549809 0.01643466 -0.020922719
0.021242647 0.014387481 0.009197648 -0.0028038884 0.011570893 0.0075669433 0.018526264 0.02146941
-0.026501143 -0.011398986 0.0159551 -0.04213765 0.022615705 -0.03499623 -0.012337582 -0.00416444
-0.005897564 -0.012152649 0.02571859 0.018993791 0.031683136 0.035151523 -0.03557805 -0.032871153
0.03887162 0.03034727 0.028709427 -0.012280094 -0.022299102 -0.023903668 0.014047051 -0.028859142
-0.029521512 0.022859462 -0.013332624 0.008179722 0.0029737286 0.03466554 -0.027925331 -0.022600356
-0.042223725 -0.018120943 -0.012911132 0.021685813 -0.008810127 0.0059641134 -0.0040682335 -0.018399253
0.0033912796 -0.01431318 0.00984531 0.020289991 0.013095968 0.027376719 0.027691869 -0.023303417
0.011255816 0.008315661 -0.006796775 -0.002396665 -0.032612294 0.009529252 0.0018878937 -0.02309919
-0.0060451697 0.014890082 0.014721752 0.016727153 -0.011722433 -0.014220479 0.0077751214 0.026137015
-0.04304911 -0.009946505 -0.009851538 0.023404097 0.03487423 0.031393588 -0.017054748 0.012102458
-0.002721711 -0.021791318 -0.006455345 0.022499446 0.027452076 0.023760693 -0.014121919 0.022093656
0.016485099 -0.022237912 -0.0064345505 -0.002061533 -0.02604081 -0.023296501 0.012086928 -0.02980446
-0.0127810165 0.008328864 0.005500404 -0.02579766 0.0042117746 -0.04065587 0.011000483 0.011574434
0.03594993 0.016551882 -0.022157425 0.0006288768 -0.004273518 -0.022825968 0.022400023 -0.002811618
0.027518548 -0.009467183 0.024500139 0.043085776 0.02332301 -0.00017049584 -0.034146976 -0.009798696
0.028492305 0.021836769 -0.01903286 0.012015519 -0.01715257 -0.011753967 0.021139022 0.024023127
0.0005489418 -0.0015003778 0.00018664898 -0.00721411 -0.034073208 -0.020585291 -0.02587318 0.018833911
0.02198242 0.03479716 0.011432559 -0.011005389 0.00575044 -0.0046754493 0.024647119 0.009672768
0.026610397 -0.025324361 -0.019083593 -0.0134491 0.0014899872 -0.03152719 0.015716853 -0.008711784
-0.019683715 -0.025454551 -0.006912835 0.0001048932 0.029048385 0.025734508 -0.01453937 0.02280956
-0.0009015714 0.017155003 0.00026737025 0.0064775054 0.010641863 -0.022182833 -0.023317328 0.024376804
-0.004067299 0.014558634 0.023608835 0.03505753 -0.016657006 0.005678989 -0.017436875 -0.032017495
0.004272755 0.006472188 -0.03623904 -0.021202097 0.034819465 -0.0030082276 -0.030251516 -0.0016563484
0.0047660177 0.029063204 -0.004580631 -0.003514787 -0.027938487 -0.016263904 0.0077598863 0.011731447
-0.021730406 -0.02183562 0.0006933955 0.025732974 -0.014315238 -0.02004598 0.022352846 0.009640725
0.00076331286 -0.025315054 -0.013549918 -0.030915096 -0.012915402 -0.037700932 -0.02155867 -0.0020629747
0.018334819 -0.017421924 -0.017760454 -0.01648738 0.018543107 0.016663762 -0.02332338 -0.024398461
-0.0017699178 -0.029518684 -0.034102216 -0.042528044 -0.01936531 -0.033383433 0.031033857 0.041038692

fc.bias f4 [3]
00000000: 1172 413c 6eac 993c 5228 cabb
0.011806981 0.018758979 -0.0061693573
